
model  : 

Model: "sequential"
_________________________________________________________________
 Layer (type)                Output Shape              Param #   
=================================================================
 conv2d (Conv2D)             (None, 62, 62, 16)        448

 max_pooling2d (MaxPooling2D  (None, 31, 31, 16)       0
 )

 conv2d_1 (Conv2D)           (None, 29, 29, 32)        4640

 max_pooling2d_1 (MaxPooling  (None, 14, 14, 32)       0
 2D)

 conv2d_2 (Conv2D)           (None, 12, 12, 16)        4624

 max_pooling2d_2 (MaxPooling  (None, 6, 6, 16)         0
 2D)

 flatten (Flatten)           (None, 576)               0

 dense (Dense)               (None, 256)               147712

 dense_1 (Dense)             (None, 2)                 514

=================================================================
Total params: 157,938
Trainable params: 157,938
Non-trainable params: 0
_________________________________________________________________
None





Starting training.............................
Epoch 1/20
2023-04-21 19:27:06.167735: I tensorflow/stream_executor/cuda/cuda_dnn.cc:384] Loaded cuDNN version 8200
2347/2347 [==============================] - 134s 54ms/step - loss: 0.0102 - sparse_categorical_accuracy: 0.9959 - val_loss: 2.3547e-05 - val_sparse_categorical_accuracy: 1.0000
…
