…
# model.add(Conv2D(16, (3,3), 1, activation='relu'))
# model.add(MaxPooling2D())

# model.add(Flatten())
# model.add(Dense(128, activation = 'relu'))
# model.add(Dense(len(classes), activation='softmax'))

################################################################################################################################################

model  :
Model: "sequential"
_________________________________________________________________
 Layer (type)                Output Shape              Param #
=================================================================
 conv2d (Conv2D)             (None, 48, 48, 8)         224

 max_pooling2d (MaxPooling2D  (None, 24, 24, 8)        0
 )

 conv2d_1 (Conv2D)           (None, 22, 22, 16)        1168

 max_pooling2d_1 (MaxPooling  (None, 11, 11, 16)       0
 2D)

 dense_1 (Dense)             (None, 6)                 774

=================================================================
Total params: 250,102
Trainable params: 250,102
Non-trainable params: 0
_________________________________________________________________
None

################################################################################################################################################

Training Time : 
Burst time :  1094.21875  seconds.
…
model.add(Conv2D(16, (3,3), 1, activation='relu'))
model.add(MaxPooling2D())

model.add(Flatten())
model.add(Dense(128, activation = 'relu'))
model.add(Dense(len(classes), activation='softmax'))


################################################################################################################################################


model  : 

Model: "sequential"
_________________________________________________________________
 Layer (type)                Output Shape              Param #   
=================================================================
 conv2d (Conv2D)             (None, 48, 48, 8)         224       

 max_pooling2d (MaxPooling2D  (None, 24, 24, 8)        0
 )

 conv2d_1 (Conv2D)           (None, 22, 22, 12)        876

 max_pooling2d_1 (MaxPooling  (None, 11, 11, 12)       0
 2D)

 conv2d_2 (Conv2D)           (None, 9, 9, 16)          1744

 max_pooling2d_2 (MaxPooling  (None, 4, 4, 16)         0
 2D)

 flatten (Flatten)           (None, 256)               0

 dense (Dense)               (None, 128)               32896

 dense_1 (Dense)             (None, 6)                 774

=================================================================
Total params: 36,514
Trainable params: 36,514
Non-trainable params: 0
_________________________________________________________________
None

################################################################################################################################################



Starting training.............................
…
